…
{'model': 'im', 'params': 'N1,N2,N_anc,T_split,reco,mig', 'data_h5': None, 'bed': None, 'reco_folder': None, 'grid': None, 'toy': True, 'seed': 1833, 'sample_size': None, 'param_values': None}
NAME	VALUE	MIN	MAX
reco	1.25e-08	1e-09	1e-07
NAME	VALUE	MIN	MAX
N_anc	15000	1000	25000
NAME	VALUE	MIN	MAX
T_split	2000	500	20000
NAME	VALUE	MIN	MAX
mig	0.05	-0.2	0.2
NAME	VALUE	MIN	MAX
N1	9000	1000	30000
NAME	VALUE	MIN	MAX
N2	5000	1000	30000
Model: "two_pop_model"
_________________________________________________________________
 Layer (type)                Output Shape              Param #   
=================================================================
 conv2d (Conv2D)             (None, 99, 32, 32)        352       
                                                                 
 conv2d_1 (Conv2D)           (None, 99, 12, 64)        10304     
                                                                 
 max_pooling2d (MaxPooling2D  multiple                 0         
 )                                                               
                                                                 
 flatten (Flatten)           (None, 384)               0         
                                                                 
 concatenate (Concatenate)   (None, 768)               0         
                                                                 
 dropout (Dropout)           (None, 128)               0         
                                                                 
 dense (Dense)               (None, 128)               98432     
                                                                 
 dense_1 (Dense)             (None, 128)               16512     
                                                                 
 dense_2 (Dense)             (None, 1)                 129       
                                                                 
=================================================================
Total params: 125,729
Trainable params: 125,729
Non-trainable params: 0
_________________________________________________________________
trial 10 [7.118372774235415e-08, 5051.979649574014, 12480.088492825884, 0.061209667268172285, 1614.4605003581084, 21539.764271716656]
…
